src/model/detect_eye_blink_model.pth (torch, 3358 bytes, 5 tensors)

layer.0.weight f4 [15, 2]
000000 3d 72 f1 3e d9 05 84 be bb 8f 10 bf 58 7d f7 3d
       0.4715747 -0.2578571 -0.56469315 0.12084454
000010 bf af 30 bf 06 df c5 3e 06 f1 a1 bd 35 ac 28 3f
       -0.6901817 0.38646716 -0.079073 0.6588777
000020 f7 c5 cb 3d 8c 99 4b be ac a1 1b 3e 88 b9 2d bf
       0.09949868 -0.19882792 0.15198392 -0.67861223
000030 76 4b 75 3e 3c e7 91 3e 56 f9 fa be f0 b5 f3 3d
       0.23954567 0.2849673 -0.49018353 0.11899936
000040 c4 a5 f9 3d 42 aa b7 3d 98 3b 0f bf 9d d8 11 3f
       0.121898204 0.08968021 -0.5595031 0.5697115
000050 9d 04 4f 3f 07 21 0d bf ba df 08 3f 7a 26 0b 3f
       0.80866414 -0.5512852 0.5346638 0.54355586
000060 62 dc 00 3e ef 0e bb 3e 7e 49 60 be 80 ff af 3e
       0.1258407 0.3653483 -0.21903035 0.3437462
000070 d3 e4 c2 be 1e 4b 31 bf
       -0.38065204 -0.69255245

layer.0.bias f4 [15]
000000 0c 3b 2d 3f 14 dd 0b bf 9e f5 aa 3e 49 6d 9c bd
       0.67668223 -0.54634213 0.33390516 -0.07638032
000010 75 26 b2 3e e9 d5 1c bf bd d3 12 3f 80 d0 62 bc
       0.34794965 -0.612639 0.57354337 -0.013843656
000020 1d 5a 47 3f e6 0a 78 be ca 9b f6 be 37 91 85 3e
       0.77871877 -0.24222907 -0.48165733 0.26087353
000030 3a bf 24 bd 65 9d d3 3e 98 2e 46 3e
       -0.04022143 0.4133102 0.19353712

layer.2.weight f4 [5, 15]
000000 04 1a a8 bd 89 e5 83 3e 00 61 fc 3d 7d 7a 27 3e
       -0.08208087 0.2576106 0.12323189 0.1635532
000010 21 c5 d5 bd e4 60 40 be 1f 92 64 be c2 38 b5 bd
       -0.1043799 -0.18786961 -0.22321366 -0.08848716
000020 a5 c5 f2 3d 74 ac 87 bc 89 f6 b2 bd fb 04 6d be
       0.11854104 -0.016561724 -0.08738429 -0.23146431
000030 32 1b 3e be cc 6b 72 be 54 69 62 bd dc d8 00 3e
       -0.18565062 -0.23673934 -0.05527623 0.12582725
000040 64 59 f6 3d 1a 93 7a be 26 47 3e be 4b 5d 50 bd
       0.12028769 -0.24470177 -0.18581828 -0.05087022
000050 b0 85 21 bd 06 d1 34 3d 30 5f 4a 3d 15 80 ab 3e
       -0.039434135 0.044144653 0.049407184 0.33496156
000060 8d a2 8e 3e 4f d6 b8 be b9 f2 21 3d 36 8b 52 be
       0.2785839 -0.36101004 0.03953812 -0.20560917
000070 63 31 d7 3e 16 72 52 be d2 ea 4c be 9c d3 3b 3e
       0.42029867 -0.20551333 -0.20011452 0.18342441
000080 50 7c b0 3c b4 b0 35 3e 72 aa 3e 3e 60 18 64 3e
       0.021543652 0.17743188 0.18619707 0.22274923
000090 eb 52 fa 3c f4 9d 9d bd 07 f5 55 be b4 50 25 3d
       0.030557116 -0.07696143 -0.20894252 0.040360168
0000a0 1f b1 93 bd ae 88 80 be 8b db a2 bd a4 ab 52 3e
       -0.072115175 -0.25104278 -0.07952031 0.20573288
0000b0 8a 66 79 3e 96 8c ec 3e 32 a9 05 be 64 40 70 3e
       0.24355522 0.4620101 -0.13052824 0.23462063
0000c0 57 07 a8 bd ca 90 71 be c8 15 32 3d 18 e9 b5 3e
       -0.08204525 -0.23590389 0.043477803 0.355294
0000d0 74 b0 0a 3e e9 0e 8b 3e 97 18 ab bd a5 73 92 be
       0.13543874 0.27159813 -0.083542995 -0.28603855
0000e0 f2 9a 65 be 00 0e 2c be 1e ab 44 bc 64 f9 e1 3d
       -0.22422388 -0.16802216 -0.012003688 0.110338956
0000f0 81 8e 70 be b4 06 58 3e 40 5b 4b 3e 2b d0 80 3e
       -0.23491861 0.21096307 0.19859028 0.2515882
000100 ca b5 01 be 20 3c 08 3d df d0 89 3d d0 73 73 be
       -0.12667003 0.033260465 0.06729292 -0.23774648
000110 4a 54 d1 bd 53 46 5a 3e 8c 71 a6 3c 29 12 79 3d
       -0.10221155 0.21315889 0.020317815 0.060808334
000120 fc 14 28 be e7 26 0c bc a8 4a 9a 3d
       -0.16414255 -0.008554197 0.07533771

layer.2.bias f4 [5]
000000 ee 50 12 bd 01 18 ec 3e 9c 18 d3 3b 3f 97 7e 3e
       -0.03572171 0.46112064 0.0064421427 0.24862383
000010 e0 f3 9a bd
       -0.07566047

layer.4.weight f4 [1, 5]
000000 50 14 a1 3d 19 d7 c8 bf 2e 85 a4 bc a3 5f af bf
       0.078652024 -1.5690643 -0.020083036 -1.3701061
000010 00 cd 7c 3f
       0.98750305
