src/model/detect_eye_blink_model.pth (torch, 2504 bytes, 3 tensors)

layer.0.weight f4 [15, 1]
000000 fc 01 24 3f 44 4e 1a 3f 76 d8 78 3f 6c ad 32 3f
       0.6406553 0.60275674 0.97205293 0.6979587
000010 be 60 78 3d fe 26 51 bf d2 8e 10 3f d5 0a e9 bd
       0.060639136 -0.8170012 0.56467927 -0.11379019
000020 43 62 4a bf fc d2 7d 3f b3 e0 91 3d 9b 5f a2 3e
       -0.79056185 0.9915006 0.07122936 0.31713566
000030 75 20 e5 3e 2c 0f e9 be e4 bc 1b 3f
       0.44751325 -0.45519388 0.608351

layer.0.bias f4 [15]
000000 7b e3 a8 3d 0a ac 05 3f c6 20 42 3f c8 de b3 3e
       0.082465135 0.52215636 0.7583126 0.35130906
000010 47 d1 59 3f 48 2f a1 be 92 b7 10 bf e9 3f c0 3f
       0.85084957 -0.31481385 -0.56530106 1.5019504
000020 44 84 a5 bd 82 59 2d 3f e7 f7 f0 3d fa 02 7e 3f
       -0.08081868 0.67714703 0.117660336 0.9922329
000030 24 bf 75 be b1 ef fa 3e be 3c 25 bc
       -0.23998696 0.49010995 -0.010085283

layer.2.weight f4 [1, 15]
000000 9e c4 4c 3e 82 9a 40 3e 02 56 76 be 76 b9 27 be
       0.19996879 0.1880894 -0.24056247 -0.16379341
000010 98 94 7d 3e f4 6b 7f 3e 65 0b 10 3e b8 21 e7 bf
       0.24763715 0.24943525 0.14066847 -1.8057165
000020 e3 35 29 be 38 a5 17 be cb b4 2b 3f 15 09 2f 3e
       -0.16524462 -0.1480912 0.67072743 0.17093308
000030 93 9d 42 be 7b 1d 31 3e ab d1 45 be
       -0.19005422 0.17296402 -0.19318263
