src/model/detect_eye_blink_model.pth (torch, 2504 bytes, 3 tensors)

layer.0.weight f4 [15, 1]
000000 4a 74 55 3f 74 4f 7b 3d b3 2e b9 bd 27 65 bd bd
       0.8338057 0.06135507 -0.0904211 -0.09247809
000010 3f 98 9b 3d ab c2 7e be a6 39 76 3f 60 e8 7a 3d
       0.07597398 -0.24878947 0.96181715 0.061256766
000020 f6 b9 67 3f 12 a9 34 3f d9 18 15 bf 90 a4 33 3f
       0.9051813 0.7057048 -0.5824104 0.7017298
000030 3a 2d de 3e 5d 37 bd 3e e6 24 eb 3e
       0.4339388 0.369563 0.4592659

layer.0.bias f4 [15]
000000 f4 73 33 3f fb a9 e5 3e 37 5d 74 3f 11 bb 83 3f
       0.70098805 0.44856247 0.95454735 1.0291463
000010 69 9a bc be 3b 9f 53 bf 16 06 5a bb 41 4e e9 3e
       -0.36836556 -0.8266484 -0.0033267788 0.45567515
000020 8c f5 a6 3e 1d 3b 34 be a6 74 14 3d f4 18 17 3f
       0.32609212 -0.17600675 0.036244057 0.5902245
000030 d0 b3 c5 be 69 7b 7f be 2a 92 36 3e
       -0.3861375 -0.24949421 0.17829195

layer.2.weight f4 [1, 15]
000000 28 66 e3 bd 40 bf c3 3e 01 8d 40 bf 31 0a 9d bf
       -0.11103469 0.3823185 -0.75215155 -1.2268735
000010 db 90 67 3f 6d 98 ce 3c 1d 06 b0 3d d9 93 0c 3f
       0.90455407 0.025219167 0.08594916 0.549131
000020 cb dc b7 be a0 12 56 3d 42 e5 ca 3c a7 78 18 ba
       -0.3591064 0.052263856 0.024767522 -0.00058163184
000030 3a 4b ea bd af 51 6f be 52 86 09 be
       -0.114401296 -0.23371004 -0.13430145
