src/model/detect_eye_blink_model.pth (torch, 2504 bytes, 3 tensors)

layer.0.weight f4 [15, 1]
0.85862815 -0.3775818 -0.47643203 -0.067733526 -0.07070447 -0.7208996 -0.08997103 0.7318146
-0.36803874 0.977111 -0.084563576 0.7110728 -0.6013764 0.07234038 0.81053865
00000000: 0ecf 5b3f 6752 c1be e6ee f3be e0b7 8abd
00000010: 81cd 90bd e08c 38bf bb42 b8bd 3458 3b3f
00000020: 936f bcbe f223 7a3f ab2f adbd de08 363f
00000030: cef3 19bf 3127 943d 767f 4f3f

layer.0.bias f4 [15]
0.20121074 -0.48072737 -0.31932002 0.2277767 0.38373187 -0.29604065 1.2144754 -0.872265
0.2639057 0.79326856 1.0036557 -0.5633774 0.00072394015 -0.465527 0.30727053
00000000: 300a 4e3e e621 f6be ea7d a3be 4c3e 693e
00000010: 8178 c43e a492 97be ee73 9b3f c24c 5fbf
00000020: a61e 873e a613 4b3f ca77 803f 8039 10bf
00000030: cdc6 3d3a 8e59 eebe 9052 9d3e

layer.2.weight f4 [1, 15]
0.03966235 0.16817906 -0.23569553 -0.6927046 -0.9682014 0.1888045 -1.2985107 0.38773456
0.21487552 0.05323077 -1.2745115 0.06744116 0.25488663 0.4326617 -0.030360384
00000000: fd74 223d 2237 2c3e 2b5a 71be 1755 31bf
00000010: 0cdc 77bf f855 413e 9935 a6bf 2585 c63e
00000020: 5408 5c3e 8208 5a3d 3123 a3bf 971e 8a3d
00000030: 8080 823e d685 dd3e 57b6 f8bc
