src/model/detect_eye_blink_model.pth (torch, 3358 bytes, 5 tensors)

layer.0.weight f4 [15, 2]
000000 d1 a0 25 3f 87 a7 35 be e7 01 c3 be 00 73 83 3e
       0.6469851 -0.17739688 -0.3808739 0.25673676
000010 07 54 ae be 99 8e ae 3e ee dd da 3e 01 78 18 bd
       -0.34048483 0.34093168 0.42747444 -0.03722382
000020 3d d9 c3 be c6 06 f2 be 46 d9 2b 3f 9e 9a 53 be
       -0.38251677 -0.47270793 0.6712841 -0.2066445
000030 7f 7a be be 5c 35 3b 3f 76 87 24 be 80 86 ae 3e
       -0.37202832 0.73128295 -0.16067299 0.3408699
000040 d4 3f 19 3e 76 43 17 bf 87 1e 22 3f 8a 58 04 3e
       0.14965755 -0.5908731 0.6332783 0.129244
000050 b1 b1 b1 be f8 0a ab bd de ef 62 be 6a 1f 84 3e
       -0.3470588 -0.083517015 -0.22161815 0.25805217
000060 50 01 ca 3d e0 f3 dd 3e 10 3c b1 3e c7 a1 d0 3e
       0.098635316 0.43350124 0.34616137 0.40748426
000070 94 6f 44 be dc 80 15 3e
       -0.19183189 0.14599937

layer.0.bias f4 [15]
000000 80 64 33 bf 80 13 95 bb 44 9b 25 3f 9b b2 41 3f
       -0.70075226 -0.0045494437 0.6469004 0.75663155
000010 dd d0 05 bf bc 08 b5 be f2 27 2e bf 30 17 83 be
       -0.52271825 -0.35358226 -0.680297 -0.25603628
000020 d4 c3 2d 3e a4 2e 06 3f 30 03 bd 3d d5 d8 2d 3e
       0.16969234 0.5241492 0.092291236 0.16977246
000030 61 f0 67 3e e0 51 3c 3e 45 ad cb be
       0.22650291 0.18390608 -0.39780632

layer.2.weight f4 [5, 15]
000000 b8 0c 4b be ba 18 43 3e 1d 65 05 be a4 87 4b 3e
       -0.1982907 0.19052401 -0.13026853 0.19875962
000010 86 52 45 3e b5 9e db bd ba 9b e5 3c fb bb 12 3d
       0.19269761 -0.1072363 0.028028358 0.035823803
000020 54 1b 60 3e 6f 40 83 3c d0 c9 4f 3d 72 4a 3a be
       0.21885425 0.016021935 0.050729573 -0.18192461
000030 24 46 84 be d0 9b 04 3e ca 08 a7 bd 47 c7 92 be
       -0.25834763 0.12950063 -0.08155973 -0.28667662
000040 5c 49 e4 3d 5e 9d c9 3e 30 9c 73 3e 40 c4 6a 3d
       0.11146805 0.39377874 0.2379005 0.057316065
000050 d1 98 bd bd 14 2f 29 bf 4f 59 64 bc 06 f6 56 3e
       -0.09257663 -0.6608746 -0.013937308 0.20992288
000060 93 90 4a 3e a9 ad 08 be c9 6f a2 bd 3e f2 6b bc
       0.19781713 -0.13347496 -0.079314776 -0.014401017
000070 fd b1 8a 3d 70 ae 56 3d d1 20 c6 bd a0 0b a0 bd
       0.0677223 0.05241245 -0.09674228 -0.07814717
000080 a3 19 03 be d4 45 02 be 3c c1 98 3d c7 2f 9e be
       -0.12802748 -0.1272195 0.074587315 -0.30895826
000090 ab 37 6d be 8f 4e 8a be e0 51 ed bd 12 c7 73 bd
       -0.23165767 -0.2701306 -0.11587882 -0.05951602
0000a0 5a 86 7c be 03 b9 a5 3c 90 20 f4 3d 2c 27 76 be
       -0.24660626 0.020229822 0.11920273 -0.2403838
0000b0 90 80 ee bd ee dc cb 3d 8c 70 15 3e 01 da a0 be
       -0.11645615 0.09954248 0.14593714 -0.31416324
0000c0 ec 33 08 be f4 8e e8 3d 11 fb 52 3c 16 ba 89 3c
       -0.13301057 0.11355391 0.012877242 0.016812366
0000d0 24 05 e9 bd 82 5e 6f 3e e1 a3 4d bb d0 70 3e 3e
       -0.113779336 0.23375896 -0.0031378197 0.18597722
0000e0 61 99 ca bd bd 48 81 3e d3 13 91 bc 8c e0 ba 3d
       -0.09892536 0.25250807 -0.017709648 0.0912486
0000f0 7e b2 20 be 62 3c de bd 12 4c 40 be be 44 36 be
       -0.1569309 -0.10851361 -0.18779019 -0.1779966
000100 0c a1 ea 3d 65 13 89 be 78 b1 03 3e 28 5f d8 bd
       0.114564985 -0.2677261 0.12860668 -0.105650246
000110 ec f5 c0 3d 82 8a 50 bc 00 b8 a2 bc bc a1 5f 3e
       0.09421906 -0.012728335 -0.019863129 0.2183904
000120 8e 34 04 be ff 39 89 be 38 44 6d 3d
       -0.12910673 -0.2680206 0.057926387

layer.2.bias f4 [5]
000000 b4 5d 79 3c 01 b7 32 3f 15 e6 c3 bd f7 c9 c3 be
       0.0152200945 0.6981049 -0.09565369 -0.38240024
000010 80 17 2b 3e
       0.16708183

layer.4.weight f4 [1, 5]
000000 04 ec 51 bf 85 df ca bf fa 35 80 3e a0 bf 53 3f
       -0.82000756 -1.5849463 0.2504118 0.8271427
000010 28 1e 56 3e
       0.20909941
