src/model/detect_eye_blink_model.pth (torch, 3358 bytes, 5 tensors)

layer.0.weight f4 [15, 2]
0	0xbf278876	-0.654426
1	0xbf220c4c	-0.63300014
2	0x3e29067c	0.1650638
3	0x3f377616	0.7166456
4	0xbf1f284b	-0.6217086
5	0x3dc85a78	0.097828805
6	0x3dff1630	0.12455404
7	0xbef39a16	-0.47578496
8	0x3f2981ab	0.6621348
9	0xbe99e639	-0.30058458
10	0xbe931b25	-0.28731647
11	0x3f125018	0.57153463
12	0x3f0ac09b	0.5420014
13	0xbf34da20	-0.7064533
14	0xbe29df74	-0.16589147
15	0x3ea7a3b0	0.3274207
16	0xbf087887	-0.5330891
17	0xbe181b94	-0.1485427
18	0xbe5fa248	-0.21839249
19	0x3f2d724e	0.6775254
20	0x3f1b2f9d	0.6061953
21	0xbe43a9e3	-0.19107775
22	0x3d8b9a12	0.06816496
23	0xbdb2aa4c	-0.08723888
24	0xbe875e1c	-0.26438987
25	0x3cbca2a0	0.023026764
26	0x3f141314	0.5784161
27	0xbf11d65d	-0.5696772
28	0x3f07a3f2	0.52984536
29	0xbf32ae74	-0.69797444

layer.0.bias f4 [15]
0	0xbf288b82	-0.6583787
1	0xbe766c13	-0.24064665
2	0x3f16ae7f	0.5886001
3	0xbe552878	-0.20816219
4	0xbf24bcf6	-0.6435083
5	0xbd541962	-0.05178202
6	0x3eee18d9	0.46503332
7	0xbdd68814	-0.104751736
8	0xbf0a1b2b	-0.53947705
9	0x3e412aaf	0.18863939
10	0x3f1a56dd	0.6028879
11	0x3f7068ff	0.9391021
12	0x3e47ef50	0.19524884
13	0xbe8b3b71	-0.27193788
14	0x3f06c6fc	0.52647376

layer.2.weight f4 [5, 15]
0	0xbd1cb71c	-0.038260564
1	0x3e6f76fb	0.23385231
2	0xbe611cce	-0.21983644
3	0x3aa9fa00	0.0012968183
4	0xbda59802	-0.08085634
5	0xbde114c2	-0.10990287
6	0x3e10beb3	0.14135246
7	0xbe0f7571	-0.14009644
8	0xbe4d1acb	-0.20029752
9	0xbd800307	-0.062505774
10	0xbd877987	-0.066149764
11	0xbe8cf0e5	-0.27527538
12	0xbe27fc72	-0.16404894
13	0xbe3e885f	-0.18606709
14	0xbdfcfe92	-0.12353243
15	0x3df68338	0.12036747
16	0x3e93ac1c	0.28842247
17	0xbd600c64	-0.054699317
18	0x3e4aee1e	0.19817397
19	0x3ef5ab2d	0.4798216
20	0x3ca5309c	0.02016478
21	0x3e6615a3	0.22469191
22	0x3de1e23b	0.11029478
23	0xbd33a09c	-0.04385434
24	0xbeae46e9	-0.34038475
25	0xbed55d1d	-0.41672602
26	0xbf10f413	-0.5662243
27	0xbe824e5a	-0.25450402
28	0xbe561141	-0.2090502
29	0x3e6f7f14	0.2338832
30	0x3dd40f28	0.10354453
31	0x3eb62bf2	0.35580403
32	0xbe146e46	-0.14495191
33	0x3c95f720	0.018306315
34	0x3ca80016	0.020507853
35	0x3d9925a7	0.07477885
36	0x3e51fc72	0.20506456
37	0x3e1a4176	0.15064034
38	0x3c524ae0	0.012835234
39	0x3e498f26	0.19683513
40	0x3e7da7b4	0.24771005
41	0xbd50e070	-0.05099529
42	0xbe037454	-0.12837344
43	0xbe41772f	-0.18893121
44	0xbe778154	-0.24170429
45	0x3e5f6d28	0.21818984
46	0x3d256a4b	0.040384572
47	0x3df50d5c	0.11965439
48	0x3d0b5aa8	0.034022003
49	0x3ee08efa	0.43859082
50	0xbe160233	-0.14649276
51	0xbe7768bc	-0.24161047
52	0xbe1789a6	-0.14798602
53	0x3e7bc44e	0.24586603
54	0x3e150fee	0.14556858
55	0xbe89e5ae	-0.26933044
56	0xbe9b788c	-0.30365407
57	0x3c165ec0	0.009177864
58	0xbe6a8430	-0.22901988
59	0x3e1f1bde	0.15537974
60	0x3bc3de40	0.005977422
61	0xbe95be85	-0.29246917
62	0x3dd7d088	0.10537821
63	0x3b291b80	0.0025803745
64	0xbc42518b	-0.011860262
65	0xbd3345a4	-0.043767586
66	0x3e80156c	0.25016344
67	0x3e3332d2	0.17499855
68	0x3db84364	0.08997229
69	0xbe2e9e5d	-0.17052598
70	0xbe55cb5f	-0.20878361
71	0x3e7e657d	0.24843402
72	0x3be7a0c0	0.0070687234
73	0xbcdfc522	-0.02731568
74	0xbe7bb3a2	-0.24580243

layer.2.bias f4 [5]
0	0x3b64cb61	0.0034911262
1	0xbf6a1fcf	-0.91454786
2	0xbb9f4f94	-0.0048617814
3	0xbe231fe8	-0.1593014
4	0x3e1491bb	0.14508717

layer.4.weight f4 [1, 5]
0	0x3f0041c5	0.50100356
1	0x3fbe087d	1.484634
2	0xbf869d2a	-1.0516713
3	0x3f33410a	0.70021117
4	0x3d0b021c	0.03393756
